ppo_baseline_DMB/cook_code_here/pytorch-a2c-ppo-acktr-gail/trained_models/ppo/Pong-ram-v0.pt (torch_old, 118464 bytes, 11 tensors)

weight f4 [64, 128]
000000 0f e7 f8 3d d4 0f b8 3c 14 c8 90 bd 41 f0 fe bd
       0.12153446 0.022468485 -0.07069412 -0.124481685
000010 5b d4 43 bd 68 36 bb bd 08 d1 42 3e 9f de aa 3e
       -0.04780994 -0.091412365 0.19025052 0.3337297
000020 e7 d6 11 3e 78 8e cb 3e f8 77 4d be f4 2a 88 3e
       0.14242135 0.39757133 -0.20065296 0.2659527
000030 a6 a7 9a 3c c0 39 33 3f eb ae 4c be 74 58 42 3e
       0.01887877 0.70009995 -0.19988601 0.18979055
000040 0c e8 16 3e 4d 65 08 3e dc a4 59 3d 0a ff c5 bc
       0.14736956 0.13319893 0.053135738 -0.024169464
000050 25 b3 ff bc f5 a0 85 3e d1 5e 6e 3d 2c 0e 0e be
       -0.031213352 0.26099363 0.058195893 -0.13872594
000060 bd 65 fd 3c a0 11 5d 3e 32 74 14 3e fc 41 ce bc
       0.030932302 0.21588755 0.1449745 -0.025177948
000070 e5 8a 76 3a 4b 18 a6 bd da c6 56 be 97 3d 15 3d
       0.0009404852 -0.08110102 -0.20974293 0.03643569
000080 d2 c2 c6 3d 75 48 fd bd 71 2c 29 3e b8 84 9f be
       0.09705128 -0.12367336 0.1652086 -0.31155944
000090 ca c2 18 3e ea 2e 37 be 1a fe 60 be ca 89 0f bd
       0.14918056 -0.1788899 -0.21971932 -0.035043515
0000a0 3a 16 2c be e6 6a f5 3d d7 f6 71 bd 57 11 52 3e
       -0.16805354 0.1198328 -0.059073295 0.20514427
0000b0 1d f2 68 bc ec 65 cf bc a7 36 4f bc ae 6e 7f bd
       -0.014217881 -0.025317155 -0.0126473075 -0.06236141
0000c0 46 e7 10 be 3d 41 49 3e 92 47 76 3e fd 63 69 3e
       -0.14150724 0.19653793 0.2405074 0.22792049
0000d0 7d fc c6 3d 29 f0 9d 3d 23 6c f5 bc 65 83 05 3e
       0.09716127 0.077118225 -0.02995879 0.13038404
0000e0 02 19 56 be 9d 39 ac 3d 76 fb 89 3e d9 ae a8 3c
       -0.20907977 0.08409426 0.26949662 0.020591186
0000f0 9b 59 e4 3b 5e 86 c6 bb f0 0a 25 bd ff ba 97 be
       0.0069686896 -0.0060584983 -0.040293634 -0.29634854
000100 b9 93 97 bc db cb 81 bd 6f d6 92 3d f4 81 57 3e
       -0.018503057 -0.063377105 0.07169806 0.21045667
000110 e3 5c 5d be 96 89 1c be 2b 23 6d be 3b 9c cf bb
       -0.21617465 -0.1528686 -0.23157947 -0.006335763
000120 73 45 fb 3c c9 ec 01 3f b5 bb e2 bb 30 88 26 3d
       0.030672764 0.5075193 -0.006919349 0.040657222
000130 6f c0 5c be db e2 ea 3c 14 87 45 bb bd 86 65 3d
       -0.21557783 0.028672626 -0.0030140327 0.0560367
000140 ae 70 56 be 79 c7 29 be b1 9c 5e be f2 f8 11 3d
       -0.20941421 -0.16579999 -0.2173946 0.035637803
000150 d0 f5 73 3c ae 70 91 bd 64 2d 22 bb af 24 83 bd
       0.014890149 -0.0710157 -0.0024746293 -0.06403481
000160 a8 eb 0e bd 97 13 d3 bd 7a 10 ea 3d d8 33 c1 3d
       -0.034892708 -0.10306471 0.11428924 0.094337165
000170 06 f1 b6 3d 60 2e 14 3c 8a bc 3e be 81 58 ed 3d
       0.0893269 0.00904426 -0.1862661 0.115891464
000180 dd 90 8a bc cf f4 70 bc d9 a0 65 3d 0c 28 c3 bd
       -0.01691478 -0.014706804 0.0560616 -0.09529123
000190 74 53 b1 bd ba 9f 79 3d a1 97 d7 bd be 22 ee 3c
       -0.086584955 0.060943343 -0.10526968 0.0290693
0001a0 98 5b ae bc 8a ab 50 bd 02 34 8d bd b7 6e a1 bb
       -0.02128391 -0.050944842 -0.06894685 -0.0049265283
0001b0 00 9f bf 3d fc f1 10 3d 5d 14 f0 3d 41 91 94 be
       0.09356499 0.035387024 0.11722634 -0.2901707
0001c0 9f cb c5 bd be ba 8f 3d c2 e4 00 3d ee a7 3c be
       -0.09657978 0.0701804 0.03146816 -0.18423435
0001d0 d6 70 ad 3d 75 9a 96 3d da 3f 9b bc cc ab 9f be
       0.08468787 0.07353679 -0.018951345 -0.31185758
0001e0 36 2c 05 3e 03 bd c2 3e 93 f3 e1 3d 86 52 85 bd
       0.13005146 0.3803483 0.11032786 -0.06509881
0001f0 83 c2 c2 ba ab 6c e4 bd 51 d6 e6 3d 18 8f ba bc
       -0.0014858994 -0.11153539 0.11271346 -0.02277331
000200 d0 c6 65 bc b4 b5 2e 3d d3 93 fe 3d b3 3e 76 3d
       -0.014024451 0.042653754 0.12430539 0.06011839
000210 83 11 ad 3e 78 3d 34 3d aa 28 33 3e 7e ff ad bd
       0.33802423 0.044003934 0.17495981 -0.08495997
000220 f7 01 1c 3e 8b ff 91 be c8 c6 55 3e b4 9b 8b 3e
       0.15235125 -0.28515276 0.2087661 0.2726723
000230 bc ad 3e 3c df 0c 3d bf 23 95 12 3e cf 7e 83 be
       0.011638101 -0.73847765 0.14314704 -0.25682685
000240 0f de 47 bc c2 91 81 3e 6f 87 dc bc 9c ec 14 3e
       -0.012198939 0.25306517 -0.026920049 0.14543384
000250 1e 34 93 3c a2 df 27 3e bc e3 91 3d b3 3d be be
       0.017969187 0.16393903 0.07123515 -0.37156448
000260 7d d1 a4 bd 03 0e ea 3d 57 57 b5 bd bf 8b 22 be
       -0.08047769 0.11428454 -0.088545494 -0.15873621
000270 2d f7 e6 3d 2a 56 7c 3d 07 ee 88 bc c5 99 c9 3d
       0.11277614 0.06160561 -0.016715063 0.09843782
000280 78 3b 8f 3e a5 c0 99 3d 72 92 91 bd f3 48 d8 bd
       0.2797506 0.07507447 -0.0710801 -0.10560789
000290 92 f9 37 3e fd a5 37 bd ef 4f 6a bd c4 f0 a4 bd
       0.17966297 -0.044836033 -0.057205137 -0.08053735
0002a0 c5 35 de 3c 79 5b 49 bd d2 30 99 3e fc f6 ef 3d
       0.027125249 -0.0491595 0.2992006 0.117170304
0002b0 9e 8c 99 3d 80 35 21 3d 50 a6 30 be 08 52 b1 bd
       0.07497524 0.039357662 -0.17250943 -0.08658224
0002c0 b7 a5 63 bd da 2c 4b 3d cf a4 c6 3d e2 5e a9 3c
       -0.05557796 0.04960332 0.096994035 0.020675126
0002d0 59 f5 c2 3d 09 50 cc bc 67 99 69 3c 17 0d 59 3d
       0.095194526 -0.024940507 0.014257765 0.052991
0002e0 70 50 b6 be da 75 d6 3d 38 4c 32 be 12 ba f5 3d
       -0.35608244 0.10471697 -0.17411888 0.11998381
0002f0 e4 ec fd 3d 89 8b 67 bb 33 99 c0 bc 3e fd 09 be
       0.12398699 -0.0035330972 -0.023510551 -0.1347551
000300 28 23 19 3e 97 fc 20 be db 68 00 be c7 57 54 3d
       0.14954817 -0.15721355 -0.12539999 0.051841523
000310 4c 14 9e 3d 64 69 a8 be a1 ae 9e 3e 55 78 69 3e
       0.07718715 -0.32892907 0.30992606 0.2279981
000320 db b5 f5 3c 80 43 30 be 7b fe 04 be ab 45 42 be
       0.029993942 -0.17213249 -0.12987702 -0.18971889
000330 7b 86 f4 bc 89 6b 94 3d cc b4 03 bd 53 26 1b 3e
       -0.029849282 0.07247073 -0.032154843 0.15151338
000340 40 39 1b 3d 97 45 0d 3e 9d 0e 83 3e 39 1f 58 bd
       0.037896395 0.13796078 0.25597087 -0.05276415
000350 03 86 97 bd 2f e9 44 3d 3c ab 0f 3e ed cf 80 be
       -0.073986076 0.048073944 0.14030164 -0.25158635
000360 55 43 1e 3e 95 b7 9c 3d cb 72 81 3d 2d f0 d1 bc
       0.15455373 0.07652203 0.06320723 -0.02562722
000370 5c 8e 6a bd 76 6d 9b 3d b1 9d 24 be e2 d9 8d bc
       -0.05726467 0.075892374 -0.1607578 -0.017315809
000380 14 56 90 3d 6b 63 0c 3d cb c3 ed 3d 92 37 29 3d
       0.07047668 0.0342745 0.1160961 0.04131276
000390 c3 35 19 bd 87 85 90 3c 3a 6a 3a bd 71 fd 25 be
       -0.037404787 0.017641796 -0.04551146 -0.16209961
0003a0 43 2b 2b 3d bf 4d e5 3d 2a 20 b7 bd ce 1e 50 3e
       0.041789304 0.111964695 -0.08941682 0.20324251
0003b0 1e d8 75 bd be 6c c4 bd 52 3f 52 be 7d 7b 04 3d
       -0.06002056 -0.095910534 -0.20531967 0.03234433
0003c0 06 fe 7b 3e b9 4c 9c 3d 71 4e d8 bc 13 bd 21 3e
       0.24608621 0.07631821 -0.026404591 0.15794782
0003d0 a6 79 b8 bd a5 89 9e 3c 3b ec 0c be 5c fd 2d be
       -0.090075776 0.019352743 -0.1376199 -0.1699118
0003e0 cf e6 06 be d0 53 0c be 10 79 a3 3d 4e ff 6f bd
       -0.13173984 -0.13703847 0.07982075 -0.058593087
0003f0 01 38 69 3e c9 37 42 3d e0 c9 20 3c a6 80 70 bc
       0.2277527 0.047416482 0.009813756 -0.01467911

bias f4 [64]
000000 a8 08 8d bc 7d 3c 22 be 37 8e 55 3e f4 42 08 3e
       -0.017216042 -0.15843387 0.20855032 0.1330679
000010 01 11 aa bd f8 12 94 be 28 80 c6 bc de 32 7a bd
       -0.083040245 -0.28920722 -0.024231032 -0.061083667
000020 b6 70 05 be a8 5d fc bd 83 ec 16 3e 7e 0d 31 bd
       -0.13031277 -0.12322551 0.1473866 -0.043225758
000030 64 73 b0 3e b1 0a 2c 3e dc fe 57 3e 75 52 67 bd
       0.34463036 0.16800953 0.21093315 -0.05647512
000040 32 2e c8 bc be 76 03 be a3 f6 fc 3d 8f 72 e9 bb
       -0.02443609 -0.12838265 0.1235173 -0.007124252
000050 bb ba 06 3e c0 16 f7 bb da 88 76 bd ab 64 dd 3d
       0.1315717 -0.007540554 -0.060189106 0.108102165
000060 f9 60 cf 3d fc 0a 40 3d e2 39 29 bd f3 49 8d 3d
       0.10125918 0.046885476 -0.041314967 0.0689887
000070 9e 2c ab 3b 67 29 3b 3d 67 eb 80 3c a8 a7 de bd
       0.0052238246 0.04569378 0.015737249 -0.10871822
000080 27 fe 54 bd 79 0a 55 bd 10 9f 51 bc 58 0a aa 3d
       -0.05200019 -0.05201194 -0.012794271 0.08302754
000090 fc 21 fc bd dd f1 42 bc 43 c1 03 3e ad ca f9 bd
       -0.123111695 -0.011898485 0.12866692 -0.121968605
0000a0 85 df e5 bc 5d 11 61 3e a4 a5 8c 3d cb 65 87 3c
       -0.028060684 0.2197928 0.06867531 0.01652803
0000b0 5e 10 87 3e 68 ac ec 3c 4e be b3 3d f7 44 98 3c
       0.26379675 0.028890803 0.08776532 0.018587573
0000c0 75 2e 90 bd 6d 17 97 3d a6 4c 2c be 24 f5 76 3d
       -0.07040111 0.07377515 -0.16826114 0.060292378
0000d0 5c 62 61 3e c7 15 33 be 7f c7 be 3b 07 b6 0e bd
       0.22010177 -0.17488776 0.0058221216 -0.034841564
0000e0 75 e3 6d 3b 06 b4 6a 3e b4 91 07 be ab f1 5d be
       0.0036298905 0.22920236 -0.13239175 -0.2167422
0000f0 3b 83 05 3c 5a 56 84 3e 6e 8f dd 3d 37 a5 8e 3c
       0.008148964 0.2584713 0.10818373 0.017412765

weight f4 [64, 64]
000000 43 0f d4 be db b5 8e 3d 3e 62 90 3e b2 82 0a 3e
       -0.41417894 0.0696828 0.28199953 0.13526419
000010 94 7e 43 be 9c 6d 4b 3e 92 72 17 3f 56 ee a6 3e
       -0.19091254 0.19866031 0.59159195 0.3260371
000020 32 f8 1c 3e e7 d3 15 be 6c 3e b3 be 3a bb a4 bd
       0.15329054 -0.14631616 -0.35008562 -0.08043523
000030 0c d8 c0 bd a0 8b 5c bd 35 e2 b4 3d 73 d0 99 bd
       -0.09416208 -0.053844094 0.08832208 -0.07510462
000040 79 f7 e5 bd b7 f1 58 3e 9c 32 e2 bd 70 38 a7 bd
       -0.11228842 0.21185957 -0.11044809 -0.081650615
000050 13 88 8a be 74 3f e6 be 00 bd d9 bd e7 63 d1 3e
       -0.2705694 -0.44970286 -0.10631752 0.40896532
000060 8c 56 6d bd ef 5f 32 3e 7f 93 f5 3e e0 74 f1 3e
       -0.057943866 0.17419408 0.47964093 0.4715948
000070 be c1 89 be 64 04 5b be 40 a2 98 3e 68 7b e8 bd
       -0.26905626 -0.21388394 0.29811287 -0.11351663
000080 e6 ec 93 3e 07 d3 75 be 72 60 8c bd 4e da ad bc
       0.28891677 -0.24006282 -0.06854333 -0.02122226
000090 a2 1a bd bd 2a 2a 68 be c5 ae 06 3e 9b 4e 17 3e
       -0.092335954 -0.22672334 0.13152607 0.1477608
0000a0 3b ce b1 3e 5d 74 99 3e 1d d2 9f be 4f 03 e7 3d
       0.34727654 0.2997159 -0.3121499 0.11279928
0000b0 31 32 00 bf dd 68 41 bd c5 1d 98 bd f9 aa 15 3f
       -0.50076586 -0.047219146 -0.07427553 0.5846401
0000c0 e7 0f dd bc 55 48 27 3e 80 54 1b be f5 13 be be
       -0.026985122 0.16336186 -0.15168953 -0.371246
0000d0 ef 98 96 be 46 d2 fc be c4 5a 43 be 7c ba 93 bd
       -0.29413554 -0.49379176 -0.19077593 -0.072133034
0000e0 87 d7 23 3f 31 2e 69 be 19 ce 0f 3e 17 32 46 be
       0.64000744 -0.22771527 0.14043464 -0.19355045
0000f0 b4 85 07 3c c5 45 08 be ef 70 a3 3d 2c 8e 05 3f
       0.008271623 -0.13307865 0.07980525 0.5217006
000100 65 ff 24 3d 02 67 c1 be 27 f1 63 bd de eb 11 be
       0.040282626 -0.377739 -0.055649903 -0.14250132
000110 e9 9d 42 3e 90 31 d8 3e 93 76 3a be 68 90 0a 3f
       0.1900555 0.42225313 -0.18209295 0.54126596
000120 90 49 d0 3e 9b 16 b0 be ee e3 3a be a5 83 bb 3d
       0.40681124 -0.34392247 -0.18251011 0.091559686
000130 33 12 c0 bd 07 1a 56 be 24 c4 04 bf c2 1e b3 bd
       -0.09378471 -0.20908366 -0.51861787 -0.08746101
000140 4b 38 00 be a9 d2 60 3e cc e5 59 be aa d9 20 3c
       -0.12521474 0.2195536 -0.21279067 0.00981752
000150 50 61 80 bd af 40 98 be 15 23 2a bf 1f 40 6e 3d
       -0.06268561 -0.2973685 -0.6645978 0.05816662
000160 26 b6 9e 3e bc fc fc 3e 92 d9 16 bd a6 4a 1b be
       0.30998343 0.4941157 -0.036828585 -0.15165195
000170 98 12 60 3e ed 46 2e 3e b0 41 b1 3e 7c 6c 45 3e
       0.21882093 0.17019244 0.34620428 0.19279665
000180 fb 20 ba 3c 26 a8 95 be 1f 7d 57 3e 98 24 52 be
       0.022720804 -0.2922985 0.21043824 -0.20521772
000190 5e 5d c9 3d 70 ec ba be 63 b1 c0 be 13 bf 62 3d
       0.098322615 -0.36508512 -0.37635335 0.055358004
0001a0 73 25 bf 3e 50 23 11 be b0 c5 01 3e 77 6f 26 3e
       0.3733326 -0.14173627 0.12673068 0.16253458
0001b0 8a 26 b0 be 50 9f d8 bd 73 da 4c 3e 2d 10 c2 3d
       -0.34404403 -0.105772614 0.20005207 0.094757415
0001c0 4a 39 8c 3e eb 66 83 3d 4a 0c bf 3d aa 92 15 3e
       0.27387458 0.064161144 0.09328516 0.14606729
0001d0 13 0f 6a be d8 61 5a be 9e f1 86 bc a5 6c 09 bf
       -0.22857313 -0.21326387 -0.016472634 -0.53681403
0001e0 92 04 b5 3c c3 39 83 bd da e1 93 3e fb db f4 3c
       0.022096906 -0.064075015 0.2888325 0.029890051
0001f0 52 72 c0 be 49 f0 75 be f5 20 9b be f5 8e 7d 3e
       -0.3758722 -0.24017443 -0.30298582 0.24761565
000200 d5 f8 cb 3e 92 ef fc 3d 83 d6 e3 be 96 1b 72 3e
       0.3983828 0.12350382 -0.44499597 0.23643336
000210 f3 4a af 3e ee 43 83 3e 4e 75 b6 3d 3d 3a cc be
       0.3423687 0.25637764 0.08909093 -0.39888182
000220 11 32 6c bc 40 bd 44 3c f2 07 88 be 40 64 82 3e
       -0.014416234 0.012008011 -0.26568562 0.2546711
000230 c2 98 ad be b3 4e d7 3d ec fb 11 3e 5d b3 54 3d
       -0.33905607 0.105130576 0.14256257 0.051928867
000240 96 58 c4 bd 61 6e bb 3e 47 c1 49 3e 3e 11 91 3e
       -0.09587209 0.3660765 0.19702636 0.28333467
000250 22 86 07 be 83 93 95 be d4 58 58 3e 05 d1 28 3e
       -0.13234761 -0.29214105 0.21127635 0.16485985
000260 c8 b8 5c 3f 52 86 91 be 1a 27 1b be 71 dc 41 3e
       0.86219454 -0.2842279 -0.15151635 0.18931748
000270 5c f2 f9 be e0 3a 43 3e d2 89 3c bd a3 18 ed bd
       -0.48817718 0.19065428 -0.046029873 -0.11576965
000280 e8 bf 25 3d a7 1d 8a be 0f 44 8a be c1 69 7b bd
       0.04046622 -0.26975748 -0.2700505 -0.06138015
000290 17 18 8c be d7 77 58 3d 7b 6b 10 bf 62 60 5d 3e
       -0.2736213 0.052848663 -0.56414 0.21618798
0002a0 76 bf 6a bd 12 08 39 bd bb 80 19 3d b2 bf 09 3f
       -0.057311498 -0.045173712 0.037476283 0.5380813
0002b0 1f af cb bc fe 5b 8f 3e 7f ba c2 3e 08 bf e0 bc
       -0.024863778 0.27999872 0.3803291 -0.02743484
0002c0 21 8b 73 3e 46 5d 53 be ce c6 9d bd 71 25 73 be
       0.23783542 -0.2064105 -0.077039346 -0.23744752
0002d0 9d 7f 64 be 85 2b 1d be 2b 91 ba be 66 38 e1 bd
       -0.22314306 -0.15348633 -0.3643888 -0.10997085
0002e0 09 86 ac 3e 15 c5 5a 3e 34 91 2d 3f 33 c6 b4 bd
       0.3369601 0.21364243 0.6779969 -0.08826866
0002f0 46 64 78 be 00 20 4e be 71 d2 b6 bd 56 8d 82 3e
       -0.24257001 -0.20129395 -0.08926857 0.25498456
000300 ab 91 cd be f0 37 aa 3e 74 6e 9e 3e cc c4 e4 be
       -0.40150198 0.33245802 0.30943644 -0.44681394
000310 eb 28 1f 3f 13 95 a5 3e 60 b0 9d 3d 9d 96 80 3e
       0.6217181 0.32340297 0.076996565 0.2511491
000320 a1 e4 14 3e 98 4b 1a 3e b0 25 73 3e 4b a6 63 be
       0.1454034 0.15067899 0.23744845 -0.22231404
000330 99 12 bc 3e 2f ad 7c be d1 23 49 3d 44 eb 74 be
       0.3673294 -0.2467544 0.049106423 -0.23917872
000340 01 d0 3f 3d 2f 51 22 3d a2 de 95 3e 97 76 94 bd
       0.046829227 0.039628204 0.29271418 -0.07249182
000350 92 e8 43 3f 67 8f 6d bd 3a 16 76 be c1 ee 8f be
       0.7652675 -0.057998087 -0.24031916 -0.28111842
000360 dc 3c ae be 1c c8 8a 3e 0f 79 50 bd df 93 e9 3d
       -0.34030807 0.27105796 -0.0508967 0.11405157
000370 c8 76 4a 3e 3a 12 d3 be 16 f7 92 3e c1 38 ed 3d
       0.19771874 -0.41224843 0.28704137 0.115830906
000380 0e b5 9d be 1f 1e 18 3f 28 f0 dd 3e 7f 76 fe 3e
       -0.30802196 0.5942096 0.43347287 0.4969978
000390 d5 93 29 bc 2c 1c dd 3d f1 46 d1 3d 8c 5e c8 be
       -0.010350187 0.10796389 0.10218609 -0.39134634
0003a0 fa 0e 1b be 33 f3 1d be 7a 33 ba 3e b2 1c 50 be
       -0.15142432 -0.15424804 0.36367399 -0.20323446
0003b0 43 a1 87 3e 0c 80 ac be f8 fe 6b 3e bc 0a 94 be
       0.2649022 -0.33691442 0.23046482 -0.2891444
0003c0 e8 1e b5 3d 93 91 74 be 28 ce 0e bf 48 d4 cc 3c
       0.088437855 -0.23883657 -0.5578332 0.025003567
0003d0 fb 35 0a 3e 3d 4f 32 be e9 38 c6 3e 6a fb 29 be
       0.13497154 -0.1741304 0.38715294 -0.16599813
0003e0 a5 a3 8a be e1 99 96 3e 39 cf 2c be 00 8f ab 3e
       -0.27077976 0.29414275 -0.16875924 0.33507538
0003f0 1b d2 b6 3b 25 c2 66 3e 05 ab ea 3e 61 95 1f be
       0.0055792457 0.22534998 0.45833603 -0.15584327

bias f4 [64]
000000 43 94 4d 3d 6d b9 29 be e4 5d 34 be ed 97 fd 3d
       0.05019022 -0.1657464 -0.17613941 0.12382493
000010 e0 f9 25 bd 8b ae ac bd a1 78 61 3e 36 85 ba 3e
       -0.040521502 -0.08431729 0.22018673 0.36429757
000020 fa ac 8c bc 14 e1 35 3e 91 03 25 3e 29 f9 4c be
       -0.017172325 0.17761642 0.16114642 -0.20016922
000030 87 78 aa be 03 fc 4e be de c6 3f bd 6f 1e 27 be
       -0.3329508 -0.20213322 -0.046820514 -0.16320203
000040 16 61 8c be 47 d0 56 3d dc 8b 10 3e 38 66 ad 3d
       -0.2741782 0.052444723 0.14115852 0.08466762
000050 08 34 dd 3d 3f e3 53 3d e0 37 38 3d 52 76 04 3d
       0.1080094 0.05173039 0.04497516 0.0323394
000060 6c a5 04 3e ff 35 5a be 68 37 5d bd d8 2d 87 3e
       0.12953728 -0.2130966 -0.054007918 0.26402164
000070 19 55 01 3e 13 b6 69 3e 2a 3f 82 bd 1b 25 4d 3c
       0.12630118 0.22823362 -0.06359704 0.012521054
000080 11 f7 b1 bd 31 a4 c7 3d dc 28 84 bd 2f 62 51 3e
       -0.08689702 0.09748114 -0.06453106 0.2044761
000090 e1 2a 6b 3e 1f 80 91 3d df 9b 3a 3e d6 43 f7 bd
       0.22965576 0.07104515 0.18223523 -0.120734856
0000a0 d0 a5 64 bc 5a 80 98 3e 73 30 a4 3d 0b d9 52 be
       -0.013955548 0.29785424 0.080170535 -0.20590608
0000b0 a9 62 48 be 48 75 12 be 1c 1c 9d bc 8e d7 35 bc
       -0.19568886 -0.14302552 -0.019178443 -0.0110987555
0000c0 e9 18 05 be ff 32 69 3e 52 27 98 3e 0d bd 63 bb
       -0.12997784 0.2277336 0.297175 -0.0034750134
0000d0 fa 29 27 3e 6b 08 99 3c 1a f7 0d 3d f2 48 ba 3e
       0.16324607 0.018680772 0.034659483 0.36383778
0000e0 74 8b bf 3d 22 61 7a be 33 fd 1b bc 92 65 7d 3e
       0.093527704 -0.24451116 -0.009520817 0.24745777
0000f0 7d a3 92 3c f9 11 13 3e cb 7d 21 3d 07 12 2b be
       0.017900223 0.14362325 0.039426606 -0.16706096

weight f4 [64, 128]
000000 c5 8d 32 3d 90 44 09 be 59 79 18 3e 00 d7 ba bc
       0.043592233 -0.13405061 0.1489004 -0.022807598
000010 a5 9f a2 bd 49 68 b4 3d 38 ce 40 bd c3 37 82 3c
       -0.07940606 0.08808953 -0.047071666 0.01589573
000020 e0 09 80 bd f8 e6 ac bd 4f aa d5 3d 37 e2 39 be
       -0.062518835 -0.08442491 0.104328744 -0.181527
000030 be 7f 25 3e a3 b1 99 be a1 a9 ca 3d fb 55 e0 3d
       0.16162011 -0.3001834 0.098956354 0.109538995
000040 0c d5 0c 3e 6d df a4 3d bf dc 1e be e7 17 66 3e
       0.13753146 0.080504276 -0.15513895 0.22470056
000050 74 6b 27 bd 43 a6 82 3c 14 4a 9e be f7 a1 1d 3e
       -0.04087396 0.01594842 -0.30915892 0.15393816
000060 3b e6 8f bc 3b 53 80 3b 36 29 8b 3d f5 db 21 be
       -0.017565837 0.003916172 0.0679497 -0.15806563
000070 b3 7b ad 3d 70 8f 80 3e 33 85 66 be 17 35 06 bd
       0.084708594 0.25109434 -0.22511749 -0.032765474
000080 06 51 6a 3b 2b 18 53 3e 92 eb bc 3c e5 8e 80 3d
       0.003575386 0.20614688 0.023061547 0.06277255
000090 cd 97 30 3d 4f d9 4e be 67 03 98 3d 3b a3 0f 3e
       0.04311352 -0.20200084 0.07422524 0.14027111
0000a0 a4 49 ad 3e 5d db f9 bc 4a c3 90 bd 16 f0 0d bd
       0.33845246 -0.030500108 -0.070684984 -0.034652792
0000b0 98 b3 3b bb 64 a5 45 bd 15 45 de bd d7 3e f6 3d
       -0.0028640982 -0.048253432 -0.1085302 0.120237045
0000c0 2d 22 89 bd ca 5f ae 3e e0 3c f4 bc 4d 57 b3 3d
       -0.06695972 0.34057456 -0.029814184 0.08756886
0000d0 f8 46 5a bd 2f 68 fd 3c be 5a 01 3e 61 85 e6 3c
       -0.053290337 0.030933468 0.12632272 0.028139772
0000e0 84 9c 17 3d 19 dd d1 bd c5 92 b5 be 06 e5 51 be
       0.0370145 -0.10247249 -0.3546354 -0.20497522
0000f0 90 ec 98 3c b2 c8 92 3e 60 74 09 3e 59 d8 46 3d
       0.01866749 0.28668743 0.134233 0.04854617
000100 a0 2c ed bb 12 91 41 3e fe 2f 0e 3e cc 67 0a be
       -0.0072379857 0.18902996 0.13885495 -0.13516158
000110 eb c8 5c 3d b2 eb 26 be eb cd 84 bd da c8 bc 3c
       0.053902548 -0.16300848 -0.06484588 0.023044992
000120 1d df 8a 3e 29 32 47 be 88 52 0e be 4b 34 1e be
       0.27123347 -0.19452728 -0.1389867 -0.15449636
000130 5b 99 c8 3c b5 52 3c be 45 62 07 be 61 74 0e be
       0.024487188 -0.18390925 -0.1322108 -0.13911583
000140 8c 95 f5 3b 55 56 b7 bc c5 fd aa 3c e2 da 75 3d
       0.007494634 -0.022380034 0.02087296 0.060023196
000150 6e bb 87 bc d3 ff 3e be 14 86 30 3e 89 e9 fb bc
       -0.016568866 -0.18652277 0.17238647 -0.030751007
000160 b4 92 01 3d 4e 58 25 bc f2 cf 9f bd f9 a4 21 3e
       0.031634048 -0.010091854 -0.07803334 0.15785588
000170 d4 6e 93 3d 7c f0 bd bd 02 9a 1f 3e 93 20 57 be
       0.07198873 -0.092743844 0.15586093 -0.2100852
000180 09 1e 03 be 04 57 5a 3d cb d1 ca 3d bf f7 e0 3d
       -0.12804426 0.05330564 0.09903296 0.10984754
000190 d1 93 9e 3e b0 e9 4d bc a8 73 8a bd 20 6c f4 3c
       0.3097215 -0.0125679225 -0.06760341 0.029836714
0001a0 06 50 85 3d 28 c4 ca bd 27 28 68 bc 68 f7 53 be
       0.06509404 -0.09900695 -0.014169729 -0.20699847
0001b0 c0 55 55 3d a6 95 ab 3d 4f 5a aa ba e2 28 16 3e
       0.05208373 0.083781525 -0.0012996885 0.14664033
0001c0 cf 3e 1d 3d 57 80 83 3e ec 84 8d 3d ab f2 69 3e
       0.038389977 0.25683853 0.069101185 0.22846477
0001d0 54 bb 3d 3e 46 17 0c bd c9 0c a4 bd e9 cc 02 be
       0.18528491 -0.034201883 -0.08010251 -0.1277348
0001e0 78 26 54 be 2c 6f 2a 3d 41 cf 37 bd 2a 7e b9 3c
       -0.207178 0.041609928 -0.044875387 0.022643168
0001f0 9d 3f d9 bd 70 53 00 be b4 65 98 bd d0 3c a8 bc
       -0.106078364 -0.12531829 -0.07441273 -0.02053681
000200 66 2d 41 bd 4a ef 77 be b7 4c 7e be bb 38 2e be
       -0.047162436 -0.24212375 -0.24833952 -0.17013828
000210 a4 fd 35 be 90 9a 8e bd f9 13 9e bd 5a 0e 78 3d
       -0.17772537 -0.06963074 -0.07718653 0.06056056
000220 23 f6 43 bd b6 46 f6 3d fb 44 88 3e b5 28 bc 3e
       -0.047842156 0.12025206 0.26615128 0.36749807
000230 54 1c 99 bd 3f e1 d7 3e 22 06 ef bd ad a5 20 3e
       -0.07476106 0.42164037 -0.116710916 0.156882
000240 30 a7 42 3e 4e cc 31 3c 12 97 c2 bc 15 28 70 be
       0.1900909 0.010851933 -0.023753677 -0.2345279
000250 a6 71 f0 3c da a4 4b bc 03 b8 8d 3d 19 2c ed bc
       0.029351067 -0.01242944 0.06919863 -0.028951691
000260 64 78 82 be 6e 4c fb 3b 5f dc e3 3a 9f eb e7 bc
       -0.25482476 0.0076690232 0.0017384401 -0.028310595
000270 cb 20 dd 3d ad 18 93 bd b3 72 91 3d f4 ee bb bd
       0.107972704 -0.07182441 0.07101955 -0.09176436
000280 c0 e4 1f 3e 68 3e 46 be 65 9b 3a be c4 38 ae bd
       0.15614605 -0.19359744 -0.18223341 -0.08506921
000290 9a 4f 31 bc 3e 88 09 3e 1d 7a 99 3d 85 6b e5 34
       -0.010822201 0.13430879 0.074939944 4.2732805e-07
0002a0 28 b6 99 3d 4b f6 0e 3e 44 19 ba bd ef fa af 3d
       0.07505447 0.13961141 -0.0908685 0.08592784
0002b0 95 93 1c 3c b8 84 0e 3d 00 33 60 3d 78 42 8b be
       0.009556671 0.03479454 0.054736137 -0.2719915
0002c0 16 cd 49 be 8a 13 83 bd 21 2e 17 be 40 e4 82 3e
       -0.1970714 -0.06400211 -0.1476369 0.25564766
0002d0 60 23 08 3d f1 4a 31 3c 98 25 57 3d e8 51 17 3d
       0.03323686 0.01082109 0.052526087 0.036943346
0002e0 fd 20 20 3d a0 b1 21 be 2b 19 eb bd 7c 3c 99 3d
       0.03909396 -0.15790415 -0.1147941 0.074822396
0002f0 e9 02 93 3d 4c 4e b7 3d 0d c0 d4 3a aa 24 db bd
       0.071782894 0.08950481 0.0016231552 -0.107003525
000300 8b 63 01 be d9 70 d8 3d 82 97 8c 3d 20 96 00 3c
       -0.12635629 0.10568399 0.06864835 0.007848293
000310 45 41 62 3e ef 54 06 be 56 f3 ca bc 7d 24 1a 3a
       0.22095211 -0.13118337 -0.024774235 0.0005880071
000320 f6 59 34 be cf 2f 01 3e c4 29 f9 3c 16 a7 12 3d
       -0.17612442 0.12615894 0.030415423 0.035803877
000330 4a 04 08 bd 42 f8 6c 3d 1a bf de 3c 45 5d 1d 3d
       -0.033207215 0.057853945 0.027190734 0.038419027
000340 a2 f4 99 bd 94 ca 80 bd f2 af 41 bd 06 fe e3 3d
       -0.07517363 -0.06288639 -0.047286935 0.111324355
000350 30 cd 11 be 09 0a a0 3d dc 50 75 bd 16 8c ad bd
       -0.14238429 0.07814414 -0.059891567 -0.08473985
000360 ec 62 0e 3e c3 a5 3a be 35 7f de 3d 8b 0d 1f be
       0.13904923 -0.18227296 0.108641066 -0.1553251
000370 94 48 bb 36 87 39 13 be a9 b3 9d bd e0 97 39 3d
       5.5814835e-06 -0.14377414 -0.07700283 0.045310855
000380 24 42 dd bd 94 bc 04 3e 4f 5c 5c 3d 71 1e 80 bd
       -0.10803631 0.12962562 0.05379897 -0.06255806
000390 c5 c5 64 3e 17 94 33 3e d2 61 69 3d 88 60 b9 bd
       0.22341068 0.1753696 0.056978054 -0.09051615
0003a0 92 13 36 be 73 a0 85 3c 34 b2 01 bb 2c 6c cb 3d
       -0.17780903 0.01631186 -0.0019790055 0.099327415
0003b0 1e c1 78 be c6 1b 3e bc 20 4b 8d bc 08 97 a1 3c
       -0.24292418 -0.011603301 -0.017247736 0.019725338
0003c0 8f 82 fb 3d 6e 68 94 3e ff e6 91 be 74 5c 36 bd
       0.122807615 0.28985924 -0.2849655 -0.044521764
0003d0 d3 e1 c0 3d fa 90 e6 3d 23 18 4e 3d 2e 95 15 bd
       0.094180726 0.11258121 0.050315987 -0.036519222
0003e0 48 0c 99 3b 5a cc ba bc e2 07 67 3e 22 20 0b 3e
       0.0046706535 -0.02280252 0.22561601 0.13586476
0003f0 58 75 a6 bd 96 2f 00 bd a5 7e ee 3d 68 60 e4 3d
       -0.0812785 -0.03129538 0.11645249 0.111512005

bias f4 [64]
000000 61 c5 9d 3e 97 14 3e be 9e 7f 06 be a4 5f 6e be
       0.3081465 -0.18562542 -0.1313462 -0.23278672
000010 bc 46 31 3d 96 5e 1d be ba 3b c1 be 93 67 38 be
       0.04328035 -0.15368113 -0.3774088 -0.1800826
000020 a7 97 f4 be 1b 4c a4 be b5 08 86 3d 97 03 20 bd
       -0.47771952 -0.32089314 0.065446295 -0.039065924
000030 ce b7 b0 bd f0 25 cb bc 12 b8 d2 3c c5 c8 3a be
       -0.08628808 -0.024798363 0.025722537 -0.1824065
000040 7e b9 c1 3d a3 23 e5 3e a0 51 6a 3c 27 06 c2 be
       0.09459208 0.4475375 0.0143016875 -0.3789532
000050 04 0b 55 3c f7 6d 68 3e 5f 7a 9a bd 52 63 e3 3b
       0.013003115 0.22698198 -0.07542872 0.00693933
000060 74 05 be be de 1d 28 be 24 44 90 3e f8 6c f1 3e
       -0.37113535 -0.16417643 0.28176987 0.4715345
000070 9b 99 98 be c9 23 dc be 94 fe 8b 3e 53 f9 02 be
       -0.29804692 -0.42996052 0.27342665 -0.12790422
000080 cc 15 4a bd b2 27 e7 3e a6 58 29 3f eb 15 b9 3d
       -0.049337193 0.45147473 0.6615089 0.09037384
000090 e4 e6 d6 3d 5f 80 46 3e 8b 6c 7f 3e f5 e3 1a 3e
       0.10493258 0.19384907 0.2494375 0.15126021
0000a0 8c e2 57 be eb 53 9f bd 59 1d 11 be 6c 9e 59 3d
       -0.21082515 -0.07779678 -0.14171351 0.0531296
0000b0 fd b5 47 be fb e7 e9 3d 83 62 84 3e ce cd 25 3d
       -0.19503017 0.114212 0.25856408 0.040479474
0000c0 1f ac c3 be 51 fc 16 be 18 00 8c 3e 93 ce 39 be
       -0.38217255 -0.14744689 0.27343822 -0.18145208
0000d0 1e c1 0e 3e 27 db d9 3c c3 2d 2f be cb 57 27 3c
       0.13940856 0.026593758 -0.171073 0.010213803
0000e0 22 dd 1e 3e 1a 65 52 3d 37 51 ef 3d 60 44 ed bd
       0.15514043 0.05136595 0.116854124 -0.11585307
0000f0 a5 50 52 3d 24 6e 3e be 5c d6 a8 be 33 36 af 3e
       0.05134644 -0.18596703 -0.32976043 0.34221038

weight f4 [64, 64]
000000 2e 4c 12 be 81 1d 7c be e9 a0 34 3e 83 28 d1 3c
       -0.14286873 -0.2462063 0.17639507 0.025532013
000010 7a 38 d1 3d 1e 52 d1 3e 8f ce 0b be 31 83 99 3d
       0.1021585 0.40882963 -0.13653015 0.07495726
000020 d4 94 cf 3e 70 53 35 3e 3e d0 77 bb d7 d6 a0 be
       0.40543234 0.1770761 -0.003781333 -0.3141391
000030 2f d3 c3 bd 02 11 a1 3e cc c5 e6 3d 54 b3 47 bd
       -0.095617644 0.31458288 0.112681955 -0.048755005
000040 f3 07 13 be 20 97 6b bd 47 a5 11 be 2a 22 42 be
       -0.14358501 -0.05751717 -0.14223205 -0.18958345
000050 66 8a 8a bd 12 3f 68 3e 5f 45 4b be 43 02 8f 3e
       -0.06764679 0.2268031 -0.19850682 0.27931413
000060 6b e5 8f bd 48 ee b9 bd f5 07 bb 3e b7 f9 ae bd
       -0.0702618 -0.09078652 0.36529508 -0.08543723
000070 6c af 37 3d 5a d7 83 be ba da 91 3c 5e ac 99 3e
       0.04484503 -0.25750238 0.017804492 0.30014318
000080 a3 96 8c be 23 1a e0 3d b9 33 20 3e 56 ec fe 3d
       -0.27458677 0.10942485 0.1564473 0.12447421
000090 8a b2 5d 3e 3a 6e 82 be 81 53 4b be f7 34 71 3e
       0.21650138 -0.2547472 -0.19856073 0.2355536
0000a0 e7 9b 10 3e 09 9d 81 be 56 40 b6 3d 69 17 28 bd
       0.14121972 -0.2531512 0.0889899 -0.04103795
0000b0 dc 53 91 be 4f 89 d7 3d 9f 64 43 be 97 e8 b3 3c
       -0.28384292 0.105242364 -0.19081353 0.021961493
0000c0 5b 1d c3 bb 26 0c 9f ba ec 16 d5 3d dd af 4c bd
       -0.005954427 -0.0012134358 0.104047626 -0.049972404
0000d0 04 78 36 be fb 1f 6e be 05 70 cc bd b1 8b ec 3d
       -0.1781922 -0.23254387 -0.099823035 0.115500815
0000e0 ac 58 b0 bd 57 09 96 3e da 39 22 3c be 24 43 be
       -0.08610663 0.29304 0.009901488 -0.19056985
0000f0 f7 be 83 be b2 c7 92 3e 81 19 c0 bd 88 d2 bc 3c
       -0.25731632 0.2866798 -0.093798645 0.023049608
000100 97 96 98 bc 65 6c ec 3d e7 d4 4f be ef f2 dd bd
       -0.018626494 0.11544112 -0.2029606 -0.108373515
000110 44 b6 22 3e a8 d1 65 be ce 65 1b be c6 e1 5e 3d
       0.15889841 -0.22443259 -0.15175554 0.054414533
000120 ff 29 12 be fa 96 ba 3d 0b 2e c5 3d d5 73 88 3d
       -0.14273833 0.09110828 0.096279226 0.06662718
000130 55 91 94 3d 50 ee c8 3d 7b 10 d8 bd 11 80 ba 3e
       0.072542824 0.098110795 -0.105500184 0.36425832
000140 ec f3 83 3e 4d 29 21 be 5f bb 35 3e 51 d5 af 3d
       0.25772035 -0.15738411 0.17747258 0.08585609
000150 5c a0 91 3e ee 83 1d be fb 8e 31 be ac a2 dc 3d
       0.28442657 -0.15382358 -0.17339699 0.10773215
000160 64 93 42 be e2 00 eb 3e f0 7e d7 bd f7 93 32 3c
       -0.19001538 0.4589911 -0.10522258 0.010899535
000170 13 41 80 3e 96 5c 87 3e 6d 3f a0 3e 5f 7c a9 bd
       0.25049648 0.26437825 0.3129839 -0.08275675
000180 4f a1 12 bd e7 f7 e3 bd 73 b8 1c 3e d0 4a f4 bc
       -0.035798367 -0.11131268 0.15304737 -0.02982083
000190 1d e6 61 be c5 e1 a4 3c 77 30 d1 bd a2 a1 fb 3c
       -0.22060438 0.020127187 -0.10214322 0.030716721
0001a0 16 44 92 3e 04 37 58 be de 12 f4 bd fd 9f 72 3e
       0.2856757 -0.21114737 -0.11917661 0.23693843
0001b0 79 cd fd bc c2 64 83 3e 1f 68 03 3e 36 75 04 be
       -0.030981766 0.2566281 0.12832688 -0.12935337
0001c0 fd 71 56 be c7 64 95 3d 86 03 3d 3d 7b 9b 81 be
       -0.2094192 0.072946124 0.04614594 -0.25313935
0001d0 e4 64 a8 ba d1 dc aa be 3e da 98 be b3 e8 64 be
       -0.001284745 -0.33371595 -0.29854006 -0.22354393
0001e0 07 f4 68 3e 66 30 82 be 1e 3c d8 3d cf 63 49 3e
       0.22749339 -0.2542755 0.105583414 0.1966698
0001f0 c3 b8 47 3e 6b 34 dd bd f1 94 4a be 1f 01 3a 3d
       0.19504075 -0.108010136 -0.19783379 0.045411225
000200 da a7 43 3e 9d b8 4d 3d 90 17 73 bd b3 5a 3d be
       0.19106999 0.05022489 -0.059348643 -0.1849163
000210 b2 d1 4d be 95 36 10 3e f0 a2 38 bd 78 94 4f 3e
       -0.20099524 0.14083321 -0.045077264 0.2027148
000220 dc 2e 33 3e 4c 7b 2d be 19 96 df bd 4a 3a 50 3e
       0.17498344 -0.16941565 -0.10917301 0.20334736
000230 e3 b2 55 be 79 35 7a be 84 5a e1 3d 90 63 6c bb
       -0.20869021 -0.2443446 0.110035926 -0.0036070086
000240 22 53 09 3d 79 89 1f be 39 c0 8c 3e cc 22 94 3d
       0.033526547 -0.15579785 0.27490404 0.072331995
000250 a6 e6 49 bd 6b 2d 45 3e ed 71 06 be ae 80 d9 3d
       -0.04929223 0.19255607 -0.13129397 0.10620247
000260 9a 97 19 be 5a 02 30 be d2 80 98 bd 4d b4 7a bd
       -0.14999238 -0.17188397 -0.074464455 -0.061207104
000270 fb ef 93 3c c9 d3 09 3e 84 54 cd bc f2 7b 29 be
       0.018058768 0.13459696 -0.025064714 -0.16551188
000280 ae 74 bf 3d 81 20 11 be 37 30 8a 3d b9 c5 3c 3d
       0.09348427 -0.14172556 0.067474775 0.046087
000290 41 2f 40 3e 85 42 c5 bd cd db 04 3e ef 6f 5b bd
       0.18768026 -0.09631828 0.12974472 -0.053573545
0002a0 82 9f 08 3d 9e 97 3b 3c bc 15 c0 3d e7 b2 75 3d
       0.033355244 0.011449723 0.093791455 0.059985068
0002b0 fc 1b e4 bd e2 42 b6 3d a3 80 bc 3d 4b 43 8c be
       -0.1113815 0.08899476 0.09204223 -0.2739509
0002c0 f3 45 f6 bc 4d 1d f8 be 7d 07 d5 bd 60 35 1e 3e
       -0.030062651 -0.48459855 -0.10401819 0.15450048
0002d0 e5 fe 8e be 66 1b d6 3c 00 88 96 bc f6 f2 83 bd
       -0.27928844 0.026136111 -0.018375397 -0.064428255
0002e0 30 21 66 3d 66 21 d2 bd 01 b0 30 bd 33 da 0c bf
       0.056183994 -0.102602765 -0.0431366 -0.55020446
0002f0 87 3b e9 3d 93 63 35 be 65 99 ff bd 6e 79 f5 bb
       0.11388307 -0.17713766 -0.124804296 -0.007491282
000300 6b 4f 2b be 6a 48 83 3e 05 f8 38 be 2d cb 00 3c
       -0.16729514 0.25641185 -0.18063362 0.007860941
000310 11 3c b2 3b 1a 77 06 3e 34 da 98 bd c7 76 8e bb
       0.0054392894 0.13131371 -0.07463494 -0.0043476555
000320 67 b2 42 3c 84 7d d2 3d 71 5c 87 be 5b 32 67 be
       0.011883355 0.102778465 -0.26437715 -0.22577803
000330 d4 e7 10 3e d7 3b 9e bd 77 f9 69 bd d5 6f 90 be
       0.14150935 -0.07726257 -0.057122674 -0.2821032
000340 fa 57 42 be c2 28 94 be 13 da 98 be 68 64 77 3e
       -0.18978873 -0.28937346 -0.29853877 0.24159396
000350 0d 28 12 be a8 ad 58 bd c6 26 08 3e f3 91 46 bc
       -0.1427309 -0.052899987 0.13296041 -0.012119758
000360 e7 54 f4 3e 7d 4e 15 be 02 6f 63 3e 50 89 98 bd
       0.47721025 -0.14580722 0.22210315 -0.07448065
000370 c1 bf 50 bd cd 86 8e 3e 31 85 9c be 6c d2 a2 bd
       -0.05096412 0.2783722 -0.30570367 -0.07950291
000380 a1 6a 81 be 63 c6 fe bd 77 1a 8a be 5d 8d 58 3e
       -0.25276664 -0.12440183 -0.26973316 0.21147676
000390 65 ab ba be b5 c4 ef bd 8e 09 81 be 48 cf 8b bd
       -0.3645889 -0.11707441 -0.25202602 -0.06826645
0003a0 d5 37 15 3e d8 fe 23 be de 25 14 3e f2 ed 1e be
       0.1457208 -0.16015184 0.1446757 -0.15520456
0003b0 ff 28 58 3e 37 a3 00 be ea 63 83 bc 6f c6 86 bd
       0.21109389 -0.12562262 -0.016038854 -0.06580817
0003c0 fb 2c f4 3d 15 86 f7 bd f8 48 74 be 61 9c a8 be
       0.11922642 -0.12086121 -0.2385596 -0.32931808
0003d0 0b d7 fd bc 30 0d 12 be 17 0d 83 3d bf 8b 0d be
       -0.03098633 -0.14262843 0.06398981 -0.1382284
0003e0 ec f8 97 bd b0 76 4b 3d 3f e0 08 bd a2 7a 58 3d
       -0.07420525 0.049673736 -0.033416983 0.052851327
0003f0 26 38 43 3d 50 7c ea bd 59 ef 88 3d 5d 27 09 bd
       0.04766097 -0.11449492 0.06686277 -0.033484805

bias f4 [64]
000000 d1 89 94 3e 27 3c 8b be b1 ff 14 be e4 69 b7 be
       0.29011396 -0.2719433 -0.14550664 -0.35822976
000010 07 e8 7f 3e b8 63 81 3e 99 eb a4 3e f9 6a 99 3e
       0.24990855 0.25271392 0.32210997 0.29964426
000020 64 33 84 3d e8 51 9a be 89 4a 84 3d 62 62 0f bf
       0.064551145 -0.30140615 0.06459529 -0.56009495
000030 3e 79 ca 3d e8 37 03 be cf d9 74 be 92 28 35 3e
       0.09886406 -0.12814295 -0.23911212 0.17691258
000040 26 11 6b bd 5d eb 61 bc 4a 89 b9 bd 39 34 2b be
       -0.0573894 -0.013789025 -0.09059389 -0.1671914
000050 3a 4b ef 3d 23 4c 20 3e c5 4e db be 72 21 51 3e
       0.1168427 0.15654044 -0.42833534 0.20422915
000060 14 c6 89 3e 24 5d 55 be 5f ef 53 3e 90 6b ef 3d
       0.26908934 -0.20836312 0.20696782 0.11690438
000070 76 1e 83 bd 9e c3 96 3e 62 13 b2 bd 3e ba 97 3e
       -0.06402294 0.2944612 -0.08695103 0.2963428
000080 28 1f b5 bc 7c a2 0c 3f 7c 46 0c 3e cd d7 a6 be
       -0.022109583 0.5493543 0.13698763 -0.32586518
000090 20 4d fe be c4 b7 c4 3d 9e cb 14 3e 13 d8 30 3e
       -0.49668217 0.09605363 0.14530799 0.17269926
0000a0 a9 13 78 be be c8 40 be 80 59 eb 3e be 43 86 be
       -0.2422625 -0.18826577 0.4596672 -0.26223558
0000b0 be 7b de be ed 5e 2f 3e a1 d0 8d be 08 bf 69 3e
       -0.43453783 0.17126055 -0.27698234 0.22826779
0000c0 bb 02 d6 3e f5 a6 5c be 12 3b de be d8 b6 86 be
       0.41798958 -0.21548064 -0.43404442 -0.26311374
0000d0 ca 9f 99 3e 19 33 48 be 8a 31 82 3e c1 40 87 3e
       0.30004722 -0.19550742 0.2542842 0.2641659
0000e0 e8 35 a9 3e 80 0a ea bd 1e 63 a4 3d 2a f4 18 3f
       0.3304894 -0.11427784 0.080267176 0.59747565
0000f0 9a ea ac 3d 12 02 8e be 88 a5 23 3f b7 2b 0a 3f
       0.08443184 -0.27735955 0.63924456 0.53972954

weight f4 [1, 64]
000000 e1 72 dc bc e7 e1 33 3d ee 1a 82 3b a4 44 81 3e
       -0.026910247 0.04391661 0.0039704954 0.2524768
000010 6a 19 f8 bb 7c 7c 1b bc df cd 33 bd ac c1 93 bb
       -0.007571389 -0.009490129 -0.043897506 -0.0045091715
000020 71 14 c1 3a b8 e0 7c 3d 78 60 9e 3a 61 27 3d 3e
       0.0014730823 0.061737746 0.0012083193 0.18472053
000030 56 40 01 3c d5 48 42 3c ab b9 9c 3c 02 2f 31 3b
       0.007888874 0.011858185 0.019131502 0.0027036075
000040 ab 46 04 bc 4b d0 8c bc cb 73 69 3c d7 ff 64 bb
       -0.008073489 -0.017189166 0.014248799 -0.0034942531
000050 35 0c bc 3b 09 89 57 bc 8f c7 f8 3d 94 93 81 bb
       0.00573876 -0.01315523 0.12147438 -0.0039543603
000060 67 32 01 bd f9 62 c2 3b 63 32 67 3a 6b 34 f5 bb
       -0.031542208 0.0059322086 0.0008819459 -0.0074830553
000070 7a 65 4f 3b c5 99 39 be 9f be f8 3b cc 52 6b bd
       0.0031646178 -0.18125065 0.007591083 -0.057452008
000080 ab 20 01 3c 13 82 0e be 6a 06 94 bd ff b2 e7 3d
       0.007881324 -0.13916807 -0.07227786 0.11313438
000090 5a df 26 3e d3 5b 5d bc 5e 0b 4c bb c1 ef 87 3b
       0.1629614 -0.013510662 -0.0031134705 0.004148454
0000a0 24 d4 e9 3b 0a f5 79 3b e2 08 d4 bd 6d 88 24 3e
       0.007135885 0.003814044 -0.10353257 0.16067667
0000b0 28 04 45 3d 81 62 9b 3b 31 f3 a1 3d c8 5e 30 bc
       0.048099667 0.004741967 0.07907713 -0.010764785
0000c0 51 db 22 be 01 d8 2b bc 48 d8 29 3c 2c 34 99 3b
       -0.15903975 -0.010488511 0.010366507 0.004675409
0000d0 ec 76 b9 bd 51 ee 62 3d 53 9d 83 bc b8 2f ea bb
       -0.09055886 0.055403057 -0.016066229 -0.007146802
0000e0 77 86 91 bd aa e5 2a 3c ca 9d ae bb 8b b7 b4 be
       -0.07105725 0.010430733 -0.0053288685 -0.35296282
0000f0 b2 4c 1c bc 92 4e 31 3d be 5c 8e be 39 f2 81 be
       -0.00953977 0.04328782 -0.27805132 -0.25380114

weight f4 [6, 64]
000000 5a e9 f3 bc 12 7f 14 3e a3 5d 27 3e 3c ec a6 3d
       -0.029774357 0.14501598 0.16344313 0.08150527
000010 23 0d 8d 3d 38 c8 07 3e b8 63 9c 3d 7d 17 12 3d
       0.06887271 0.13259971 0.07636207 0.03566693
000020 0f 58 6f be b0 ce 3f 3d 32 94 83 3e 42 b8 16 3e
       -0.23373435 0.046827972 0.25699002 0.14718726
000030 e9 08 3a be ea 6c 60 bd 95 49 c0 bd 20 08 00 be
       -0.18167461 -0.05479137 -0.09389035 -0.125031
000040 f4 a5 83 3d eb 3f 00 3e f8 49 23 3e 78 5b 0d 3e
       0.064281374 0.12524383 0.15946186 0.13804424
000050 cf 74 1a 3e 8e bb e9 bc 9f bf eb 3c 00 a4 31 be
       0.15083621 -0.028531816 0.028777895 -0.17347717
000060 88 b4 25 be 68 58 3b be 71 69 cd bd 16 0d bd 3d
       -0.16182148 -0.18295443 -0.10029877 0.092310116
000070 0a 06 5f 3d 55 08 4c bc f9 ec 7d bc 74 06 28 3d
       0.05444912 -0.012453158 -0.015498393 0.04102178
000080 0c 00 53 bc 14 da 23 3d 1f b3 9f be 6f 98 bb 3d
       -0.012878429 0.040002897 -0.31191346 0.09159934
000090 eb 65 bb bd 5a 44 87 3a 0a 35 15 3d 88 03 e7 bc
       -0.09150299 0.0010320053 0.036427535 -0.028199926
0000a0 2d f8 3b 3e 0c a5 09 bc ed 25 07 3e ac 4f 0e bd
       0.1835639 -0.008401167 0.13198061 -0.03474395
0000b0 47 73 3d be aa 85 b9 3d 38 34 04 be 3a e3 a5 bd
       -0.18501006 0.090586975 -0.12910545 -0.08099981
0000c0 68 6f 73 be 2d d4 0b bd 1e 2f 24 bc 55 fe 7d 3e
       -0.23772967 -0.034137893 -0.010020999 0.24804051
0000d0 11 0e c5 bc c2 54 09 be 85 32 a0 3e 61 ad 23 3e
       -0.024054559 -0.13411239 0.31288543 0.15984108
0000e0 72 25 bf 3d 99 33 2b bd d1 e0 b1 3d 4b 4a 92 3d
       0.09333314 -0.041797254 0.086854585 0.071430765
0000f0 7a e3 85 bb 53 5b 38 3d ae 10 35 bc ab 30 f2 3d
       -0.004085955 0.04500897 -0.01105134 0.11825689
000100 d8 df d4 bc b9 8d 1a be 8a c1 c4 bd e9 e6 89 3c
       -0.025985643 -0.15093125 -0.09607227 0.01683374
000110 7b 08 b1 bd 98 27 98 bd 14 a3 45 be 5a 91 2a 3d
       -0.08644196 -0.07429427 -0.1930049 0.041642524
000120 8f 83 e6 3d 53 05 23 be 41 f5 9a bd 4f 08 59 3e
       0.112555616 -0.1592 -0.0756631 0.21194576
000130 2f 42 51 be d7 06 70 bc 28 13 71 be 6e e8 88 bd
       -0.20435403 -0.014650068 -0.23542464 -0.066849574
000140 61 1e 63 be 10 ea a5 3d 15 04 24 be ac 20 0d 3e
       -0.22179557 0.081012845 -0.16017182 0.13781995
000150 42 94 92 3d 49 3f b8 bd d5 11 8b 3d 05 7e 1a be
       0.07157184 -0.08996446 0.067905106 -0.15087135
000160 49 28 a4 bd 37 da b0 3d c7 3b 31 bd 4b 85 65 bd
       -0.08015496 0.08635371 -0.0432699 -0.05603532
000170 45 bf c6 bd c5 0a 83 3c c8 21 2f be f9 c8 94 bd
       -0.097044505 0.015996346 -0.1710273 -0.07264895
000180 9b 81 32 3c af c3 4e be 73 8c ac 3c 33 c9 74 be
       0.010895158 -0.20191835 0.021063065 -0.23904876
000190 29 d1 1c bd 16 7d 37 3d b2 10 bb 3d cd 52 8b be
       -0.03828541 0.044797026 0.09134044 -0.2721161
0001a0 87 b2 40 be c3 f1 89 3c 57 22 94 3e eb e0 b6 be
       -0.18818103 0.016838914 0.2893245 -0.35718474
0001b0 54 fb 52 3d 68 09 1f 3e ba 42 a7 bc 20 7e 76 3d
       0.051509216 0.15530932 -0.02041756 0.060178876
0001c0 97 4b 69 be 62 d6 29 bd 4c 67 28 be 6d 7d c7 3d
       -0.22782741 -0.041464217 -0.16445655 0.0974072
0001d0 21 05 36 bd 33 43 ed 3d 25 bf 77 bd 78 66 8b 3e
       -0.044438485 0.11585083 -0.060485024 0.27226615
0001e0 c6 b6 75 bd 02 4b 96 3c e1 f0 0f bd 03 39 02 3e
       -0.05998876 0.018346313 -0.03514183 0.1271706
0001f0 fc e0 c0 bd 84 37 c4 3c 50 29 0f 3d 83 1d 61 3e
       -0.09417912 0.023952253 0.034951508 0.21983914
000200 45 37 1e 3e 27 0a b6 3e 0e 58 bd bd eb f3 4c 3e
       0.15450771 0.3555462 -0.09245311 0.20014922
000210 f0 12 2f 3e 04 91 bf 3e 1d e4 81 3d 23 77 58 be
       0.17097068 0.37415326 0.06342337 -0.21139197
000220 de 99 7b be 8d 86 5a 3e 9b 91 d5 3e af 24 d9 be
       -0.24570414 0.2134039 0.4171265 -0.424108
000230 cd a8 84 3e f7 f2 28 be 82 91 c0 3e 25 21 22 3e
       0.25910035 -0.16498934 0.37611014 0.15832956
000240 00 7b f8 3d 00 c2 07 bd 4e 26 e7 3e 04 19 c2 bd
       0.121328354 -0.033143997 0.45146412 -0.094774276
000250 ed c4 b6 3d 78 d7 c7 be 3d 5e f7 bc 54 d5 1e bb
       0.08924279 -0.39031577 -0.030196304 -0.002423604
000260 de b8 c2 3d 28 61 b0 be 0f 50 be be 4f 29 b9 3e
       0.09507917 -0.34449124 -0.37170455 0.36164328
000270 5c 75 95 3e 90 83 8e be 1c 72 cd bc d2 ad 22 bc
       0.291911 -0.2783475 -0.025078826 -0.009929137
000280 55 5a 2b 3e c0 ac fc 3e 97 45 10 be ff 61 2c 3e
       0.16733678 0.49350548 -0.14089046 0.16834258
000290 1b a0 ae 3d e6 4c 14 3e e1 3d ab be ed c3 31 bc
       0.085266314 0.1448246 -0.33445647 -0.010849935
0002a0 6b 24 85 3e 32 6e 28 3d be 21 b8 bd 79 ee a9 bd
       0.26004347 0.041120715 -0.08990811 -0.08297438
0002b0 39 d8 52 bd d9 ee 08 be 36 92 a2 3e 49 9c 28 3e
       -0.051475737 -0.13372363 0.31752175 0.16465868
0002c0 14 d9 98 3e ad 60 24 3e b7 47 85 3d a2 54 ef bd
       0.29853117 0.16052504 0.06507819 -0.11686064
0002d0 20 ce 04 3e 78 6a 09 bd 2d fa ee 3d 80 f9 e2 3c
       0.12969255 -0.033548802 0.11668811 0.027706861
0002e0 9f dd b7 3e 30 99 5d bd 2f 4c 19 3e 56 7d 78 bd
       0.3591127 -0.05410117 0.14970468 -0.060666405
0002f0 07 b0 18 be 88 49 f8 3d a1 18 d8 be 73 2d 3e be
       -0.14910899 0.121234 -0.4220629 -0.18572025
000300 95 0f 5c be 6c aa 03 be 65 ab 02 be 94 6d 94 3e
       -0.21490319 -0.1285798 -0.12760694 0.2898985
000310 79 e3 0f be 39 8a 8a be 73 33 98 3e f4 23 25 3e
       -0.14051618 -0.2705858 0.29726753 0.16126996
000320 47 56 a0 3e 42 c7 f9 3c 2c 61 88 be 03 d5 04 be
       0.31315824 0.030490521 -0.26636636 -0.12971883
000330 96 e6 e3 bd da a8 b7 bc 58 9b b0 bd 30 29 b7 3e
       -0.11127965 -0.022419382 -0.086233795 0.3577361
000340 42 f3 2a be 80 ff a0 be be 9f 73 be 41 5f a5 be
       -0.16694358 -0.3144493 -0.23791406 -0.32299235
000350 ce ec 80 be 06 21 2a 3e e3 de cf 3d d1 64 88 3e
       -0.25180668 0.1661416 0.10149934 0.26639417
000360 5d 1b 70 3e 2d 3e 1b 3e f3 d0 1a 3e b7 e3 31 3e
       0.23447938 0.15160437 0.1511877 0.17372023
000370 9e fc 1e 3d 98 aa 88 3e cf d0 af bc 98 86 c7 bd
       0.038815133 0.26692653 -0.021461872 -0.097424686
000380 ba 9e 11 be cf 2b a4 be 2c 69 eb 3e 02 06 0d bd
       -0.14220706 -0.32064673 0.45978677 -0.034429558
000390 4d ce 8e 3c 61 34 ba 3c a5 c0 9c 3d f2 79 44 3d
       0.017432356 0.022730054 0.076539315 0.04796786
0003a0 cb 52 56 be db 65 19 be 41 18 81 3e 1a 30 1c 3e
       -0.2093002 -0.14980261 0.25213817 0.15252724
0003b0 d3 fc 13 3e da 84 bc be 9a 5e 60 bd 57 a8 83 be
       0.14451914 -0.36820108 -0.05477772 -0.2571437
0003c0 6a d1 ab 3e 6f 1a 80 bd 7b 61 b8 3e 93 7d 2c be
       0.33558208 -0.06255042 0.36011872 -0.16844778
0003d0 b6 fa 03 bd fa 4f 47 3d 02 de 79 be 61 5c 91 be
       -0.03222152 0.048660256 -0.24401096 -0.28390792
0003e0 fc d0 14 be 26 f8 3c 3b ed f5 41 bd 2b 59 a2 be
       -0.14532846 0.0028834431 -0.047353674 -0.31708655
0003f0 25 14 24 3e 7a 7b 32 3e fb d7 e6 3d 67 0c c3 bd
       0.1602331 0.17429915 0.11271664 -0.0952385

bias f4 [6]
000000 3f 57 98 3d 51 26 a9 3d 80 ad ed 3d 4c 1e 3b 3d
       0.07438516 0.082592614 0.11605358 0.04568319
000010 3f fb 36 3d d1 20 b5 3d
       0.0446732 0.0884415
